…
      "source": [
        "model = create_model()\n",
        "model.summary()\n",
        "history = fit_model_gen(model)\n",
        "model.save('cifar10_small.h5')\n",
        "train_val_res(history)"
      ],
      "execution_count": 9,
      "outputs": [
        {
          "output_type": "stream",
          "text": [
            "_________________________________________________________________\n",
            "Layer (type)                 Output Shape              Param #   \n",
            "=================================================================\n",
            "conv2d_1 (Conv2D)            (None, 148, 148, 32)      896       \n",
            "_________________________________________________________________\n",
            "max_pooling2d_1 (MaxPooling2 (None, 74, 74, 32)        0         \n",
            "_________________________________________________________________\n",
            "conv2d_2 (Conv2D)            (None, 72, 72, 64)        18496     \n",
            "_________________________________________________________________\n",
            "max_pooling2d_2 (MaxPooling2 (None, 36, 36, 64)        0         \n",
            "_________________________________________________________________\n",
            "conv2d_3 (Conv2D)            (None, 34, 34, 128)       73856     \n",
            "_________________________________________________________________\n",
            "max_pooling2d_3 (MaxPooling2 (None, 17, 17, 128)       0         \n",
            "_________________________________________________________________\n",
            "conv2d_4 (Conv2D)            (None, 15, 15, 128)       147584    \n",
            "_________________________________________________________________\n",
            "flatten_1 (Flatten)          (None, 28800)             0         \n",
            "_________________________________________________________________\n",
            "dense_1 (Dense)              (None, 512)               14746112  \n",
            "_________________________________________________________________\n",
            "dense_2 (Dense)              (None, 10)                5130      \n",
            "=================================================================\n",
            "Total params: 14,992,074\n",
            "Trainable params: 14,992,074\n",
            "Non-trainable params: 0\n",
            "_________________________________________________________________\n",
            "Found 2500 images belonging to 10 classes.\n",
            "Found 500 images belonging to 10 classes.\n",
…
        "(x_train, y_train), (x_test, y_test) = cifar10.load_data()\n",
        "model = create_model(32)\n",
        "model.summary()\n",
        "history = fit_model(model,x_train, y_train,x_test, y_test)\n",
        "train_val_res(history)"
      ],
      "execution_count": 45,
      "outputs": [
        {
          "output_type": "stream",
          "text": [
            "_________________________________________________________________\n",
            "Layer (type)                 Output Shape              Param #   \n",
            "=================================================================\n",
            "conv2d_72 (Conv2D)           (None, 32, 32, 32)        896       \n",
            "_________________________________________________________________\n",
            "max_pooling2d_62 (MaxPooling (None, 16, 16, 32)        0         \n",
            "_________________________________________________________________\n",
            "conv2d_73 (Conv2D)           (None, 16, 16, 64)        18496     \n",
            "_________________________________________________________________\n",
            "max_pooling2d_63 (MaxPooling (None, 8, 8, 64)          0         \n",
            "_________________________________________________________________\n",
            "conv2d_74 (Conv2D)           (None, 8, 8, 128)         73856     \n",
            "_________________________________________________________________\n",
            "max_pooling2d_64 (MaxPooling (None, 4, 4, 128)         0         \n",
            "_________________________________________________________________\n",
            "conv2d_75 (Conv2D)           (None, 4, 4, 128)         147584    \n",
            "_________________________________________________________________\n",
            "max_pooling2d_65 (MaxPooling (None, 2, 2, 128)         0         \n",
            "_________________________________________________________________\n",
            "flatten_17 (Flatten)         (None, 512)               0         \n",
            "_________________________________________________________________\n",
            "dense_30 (Dense)             (None, 512)               262656    \n",
            "_________________________________________________________________\n",
            "activation_9 (Activation)    (None, 512)               0         \n",
            "_________________________________________________________________\n",
            "dense_31 (Dense)             (None, 10)                5130      \n",
            "_________________________________________________________________\n",
            "activation_10 (Activation)   (None, 10)                0         \n",
            "=================================================================\n",
            "Total params: 508,618\n",
            "Trainable params: 508,618\n",
            "Non-trainable params: 0\n",
            "_________________________________________________________________\n",
            "Train on 50000 samples, validate on 10000 samples\n",
            "Epoch 1/100\n",
            "50000/50000 [==============================] - 21s 427us/step - loss: 1.4618 - acc: 0.4690 - val_loss: 1.2100 - val_acc: 0.5764\n",
…
